quiz6/cifar_net.pth (torch, 250887 bytes, 10 tensors)

conv1.weight f4 [6, 3, 5, 5]
-0.32600823 0.09802703 0.511141 -0.036115907 -0.06680239 0.059280142 0.2831899 0.09325435
-0.47565445 -0.31733516 0.15748854 -0.25250918 -0.4915762 -0.3539071 -0.06628687 -0.019084474
-0.27680373 -0.1635659 0.058472913 0.26878384 0.0030079512 0.09156513 0.16084014 0.34728786
0.38540843 -0.11752084 0.10427604 0.506592 -0.12727527 -0.312889 0.04228663 0.2997235
0.0567454 -0.28397328 -0.13648917 0.22289874 -0.15544681 -0.5065284 -0.3678514 -0.016892992
-0.06806619 -0.19837798 -0.20961246 0.18311416 0.22420411 0.013660166 0.050235275 0.31207433
0.46726295 0.2675486 -0.18000437 0.22843653 0.36158314 -0.0299946 -0.2286558 -0.023497088
0.311993 0.03220079 -0.39778808 -0.06895488 0.06617798 -0.012356029 -0.36236212 -0.43488762
0.1658365 -0.0953446 -0.1974258 -0.23070335 0.10907692 0.22029985 0.019604713 -0.03656333
0.22809252 0.3428986 0.0133211175 -0.014115668 -0.10067723 0.04505267 -0.06837384 -0.15440822
-0.28593475 -0.2689586 -0.07055559 -0.33904675 -0.27977157 -0.3444112 -0.3859987 -0.4288664
-0.301586 -0.24093863 -0.062605806 0.053675447 0.06432358 -0.078383945 0.024796909 -0.036550827
0.12815566 0.03817012 0.021311836 -0.11138315 0.086651996 0.13967729 0.27590585 0.075173765
0.2150233 0.018251002 0.15433933 0.11288179 0.05974412 -0.071090646 -0.28121948 -0.21788512
-0.14206177 -0.23466787 -0.1386112 0.012914368 0.051912926 0.10230925 -0.025666317 0.0030180027
-0.14065604 -0.18275036 -0.07374854 -0.11795753 -0.09420298 0.2765131 0.33963206 0.48339966
0.3818248 0.2525439 0.26975855 0.34934768 0.29219633 0.27042672 0.24856843 -0.026498608
-0.14103189 -0.073841624 0.03228791 -0.09812242 0.17787482 0.15129507 0.11143794 0.17179836
0.119664505 -0.04684196 -0.07174031 0.0122536775 -0.08835847 0.045105055 0.0067341435 -0.09428252
-0.01654031 -0.053633776 -0.14358573 0.0035910073 0.08245558 -0.06906992 -0.07356273 -0.10120237
0.06471264 0.040347196 -0.06912751 -0.06331955 -0.04970929 -0.027196849 0.08010403 0.12237726
0.087976255 0.02314145 0.030910185 0.0036410154 0.12696688 0.006395119 0.07892613 -0.119121924
-0.15462561 -0.15551664 -0.10632668 0.030011993 -0.043930214 -0.07668344 -0.095196635 -0.08883718
0.006024164 0.0063084 0.042865593 0.106157415 -0.1271796 -0.09555521 -0.087094344 0.034098204
-0.014710815 -0.071552955 -0.051204685 -0.039970398 0.026687345 -0.07699913 -0.058173027 -0.14291325
0.14681853 0.11395192 -0.008661481 0.08168051 0.05593028 0.13880093 0.14263566 0.17016973
0.06419684 -0.06330664 0.20039852 0.1897081 0.17438318 0.2545526 0.120588295 0.1122101
0.21020773 0.18538962 0.19534671 0.0012342023 0.04774988 0.1727539 0.21668667 0.18090683
0.0672758 0.2256037 0.31027725 0.5113427 0.48481044 0.27964044 0.3517 0.48039168
0.557209 0.7478675 0.5433942 -0.27398378 -0.13993129 -0.14876613 -0.067143686 0.06598043
-0.29643634 -0.38120672 -0.28563982 -0.16655599 -0.17240371 -0.076470256 -0.15995431 -0.31627932
-0.29196906 -0.49559906 0.011390934 0.1390244 0.040235087 -0.12364236 -0.059867546 -0.25005004
00000000: 8dea a6be 65c2 c83d 23da 023f 46ee 13bd
00000010: b1cf 88bd bccf 723d 44fe 903e 23fc be3d
00000020: fb88 f3be c179 a2be ad44 213e e248 81be
00000030: e0af fbbe 5033 b5be 69c1 87bd 0b57 9cbc
00000040: 38b9 8dbe d27d 27be 4b81 6f3d 099e 893e
00000050: 0c21 453b 8086 bb3d 47b3 243e b7cf b13e
00000060: 4154 c53e c4ae f0bd ad8e d53d 03b0 013f
00000070: 7354 02be fd32 a0be bf34 2d3d 5c75 993e
00000080: dd6d 683d f264 91be d1c3 0bbe 913f 643e
00000090: 732d 1fbe d8ab 01bf 0557 bcbe 2c63 8abc
000000a0: 4966 8bbd 9923 4bbe a6a4 56be 4782 3b3e
000000b0: c395 653e e4ce 5f3c 81c3 4d3d 35c8 9f3e
000000c0: 173d ef3e 21fc 883e 1153 38be 44eb 693e
000000d0: 6d21 b93e 3cb7 f5bc bf24 6abe f77c c0bc
000000e0: 8cbd 9f3e fae4 033d e1aa cbbe 3738 8dbd
000000f0: 5288 873d f170 4abc 8787 b9be 97a9 debe
00000100: 0bd1 293e 0844 c3bd fd29 4abe 803d 6cbe
00000110: b863 df3d 4996 613e 109a a03c 6ec3 15bd
00000120: 1691 693e 6890 af3e d140 5a3c 6745 67bc
00000130: dd2f cebd 2689 383d 9507 8cbd 301d 1ebe
00000140: 0a66 92be f1b4 89be 737f 90bd 8997 adbe
00000150: 383e 8fbe aa56 b0be 9fa1 c5be 6094 dbbe
00000160: 7b69 9abe 9eb8 76be 7937 80bd c9da 5b3d
00000170: 15bc 833d c387 a0bd e322 cb3c 52b6 15bd
00000180: 3d3b 033e 4658 1c3d 2996 ae3c d91c e4bd
00000190: 9a76 b13d 9007 0f3e 8843 8d3e b4f4 993d
000001a0: 112f 5c3e 2083 953c 210b 1e3e 912e e73d
000001b0: 40b6 743d f997 91bd 00fc 8fbe 471d 5fbe
000001c0: a478 11be c64c 70be 18f0 0dbe c996 533c
000001d0: a6a2 543d 8387 d13d 2b42 d2bc afc9 453b
000001e0: 2308 10be e922 3bbe 7909 97bd b893 f1bd
000001f0: 7eed c0bd 2093 8d3e 41e4 ad3e 2980 f73e
00000200: 8a7e c33e 6f4d 813e cb1d 8a3e b3dd b23e
00000210: c29a 953e 5f75 8a3e b988 7e3e 9c13 d9bc
00000220: aa6a 10be 473a 97bd 5440 043d 68f4 c8bd
00000230: d124 363e 18ed 1a3e 9339 e43d e9eb 2f3e
00000240: aa12 f53d 5bdd 3fbd 95ec 92bd a6c3 483c
00000250: 49f5 b4bd 14c0 383d 17aa dc3b 3217 c1bd
00000260: 8b7f 87bc 17af 5bbd 2308 13be 1b57 6b3b
00000270: 79de a83d 8874 8dbd 0ea8 96bd 3043 cfbd
00000280: 1088 843d 1a43 253d b992 8dbd aead 81bd
00000290: f89b 4bbd edcb debc 950d a43d eea0 fa3d
000002a0: e52c b43d 2393 bd3c 5b37 fd3c 1a9e 6e3b
000002b0: 9b03 023e 258e d13b 06a4 a13d 32f6 f3bd
000002c0: 2d56 1ebe c13f 1fbe cdc1 d9bd b6db f53c
000002d0: 2bf0 33bd 350c 9dbd 74f6 c2bd 44f0 b5bd
000002e0: 5a66 c53b b2b6 ce3b d593 2f3d 0f69 d93d
000002f0: 5e3b 02be 73b2 c3bd 855e b2bd 8faa 0b3d
00000300: a105 71bc 5b8a 92bd 01bc 51bd 00b8 23bd
00000310: 6b9f da3c b8b1 9dbd d746 6ebd da57 12be
00000320: 9957 163e a05f e93d e2e8 0dbc 1c48 a73d
00000330: 2617 653d d521 0e3e 150f 123e f940 2e3e
00000340: a279 833d e9a6 81bd 4535 4d3e d742 423e
00000350: 8191 323e b854 823e fff6 f63d 69ce e53d
00000360: b240 573e c7d6 3d3e f808 483e f5c4 a13a
00000370: 6195 433d 66e6 303e 1ce3 5d3e a43f 393e
00000380: e5c7 893d a804 673e a9dc 9e3e 5be7 023f
00000390: 1339 f83e 082d 8f3e 0612 b43e e6f5 f53e
000003a0: 40a5 0e3f 3f74 3f3f e21b 0b3f 9a47 8cbe
000003b0: 264a 0fbe 2656 18be a182 89bd bf20 873d
000003c0: 81c6 97be 872d c3be 623f 92be a78d 2abe
000003d0: 998a 30be 709c 9cbd 10cb 23be 5def a1be
000003e0: f87c 95be 29bf fdbe 0aa1 3a3c 6a5c 0e3e
000003f0: 8ccd 243d 3538 fdbd ac37 75bd 8f06 80be

conv1.bias f4 [6]
-0.21323715 0.066612355 0.11606778 -0.48700938 -0.26253012 0.053724274
00000000: d75a 5abe 0f6c 883d f2b4 ed3d 4b59 f9be
00000010: 596a 86be fc0d 5c3d

conv2.weight f4 [16, 6, 5, 5]
-0.067524396 -0.052485507 -0.047868438 -0.14651203 0.057862192 0.08818046 -0.097014114 -0.056418266
0.00546428 0.04046246 0.09117268 0.08694321 -0.06343208 -0.068930045 -0.068258636 0.08017142
0.15155183 0.0857997 0.112458505 -0.0088120615 -0.010310016 0.06197068 -0.06539533 0.09748982
0.02383711 0.29930988 0.18294327 0.22126335 0.26869318 0.18777458 -0.011814683 0.07433879
0.12178102 0.15365165 0.020752478 -0.118928 -0.0150457965 -0.05175655 -0.006487795 -0.09577734
-0.0333066 0.083245404 0.08214918 0.051666114 -0.14624873 -0.06560538 -0.108917244 -0.106733
-0.16937444 -0.19441713 0.07420546 0.04946554 0.09635848 0.19325323 0.17994493 -0.08465246
0.068106 -0.04168132 0.06915505 0.091014765 -0.044198733 -0.11413696 -0.13386682 -0.006054332
-0.06866868 -0.12621613 -0.19147798 -0.100566186 -0.051529065 -0.19650191 -0.15159327 -0.117290616
-0.029475726 -0.10607336 -0.0892743 0.010488983 -0.16537738 -0.03454077 -0.11592689 -0.16040668
0.14062175 0.04251872 0.13361195 0.09393983 0.093875065 0.014568592 -0.077182434 -0.099404685
-0.044853386 -0.072199516 0.15440282 0.219804 0.16477874 0.11097885 0.08774956 -0.051605396
-0.067246065 -0.11815042 -0.08979141 -0.02343022 -0.06734382 -0.07439248 -0.089083664 -0.058504794
-0.032028724 -0.009455517 0.030246962 -0.11263613 -0.01747137 0.061606083 -0.02772701 -0.025968285
-0.06736051 0.06742032 0.029301723 0.03182749 0.10855031 0.0037822013 -0.05024563 0.006087059
0.07334341 0.026628371 -0.05246348 0.045174222 0.0044337264 0.009557147 0.014703995 -0.11982683
-0.033941556 0.07083326 0.12563305 -0.02200307 -0.017270649 0.0011533068 0.12715906 0.04293691
0.10060089 -0.0073919026 -0.047496464 0.11604764 -0.0068674246 -0.031736393 0.00900653 0.051792633
-0.056932025 -0.110165395 -0.061269306 0.006385457 -0.023592597 0.005753111 -0.11345365 -0.011186587
-0.06941448 -0.023212584 0.010092439 -0.21501 -0.07710259 0.004981583 -0.0036988733 0.12354939
-0.13899788 -0.078143805 0.0019766947 0.12822245 0.094634816 0.0022234472 -0.0345273 0.08480693
0.13057797 0.007868031 0.06539791 0.01659135 0.096120164 0.17361674 0.122147486 -0.01548769
0.0006076325 0.12640049 0.034350194 0.0592449 -0.020995287 -0.10890498 0.023947993 0.012364206
0.026057096 0.13218373 0.08054908 0.024191068 -0.055940244 0.05534853 0.17858455 0.024238717
-0.06858575 0.042547744 0.087108165 0.034960628 0.091601364 0.05879982 -0.030888353 0.030073086
0.014408508 -0.050463796 -0.08966277 -0.003322086 -0.009605346 0.0052638445 0.008597781 -0.029066518
-0.075875886 -0.002315947 -0.022888688 0.062275626 -0.07796939 -0.04065216 0.054370366 0.028635288
0.014122634 0.059005626 0.057019074 0.020093586 0.097489916 0.14587201 0.034302622 0.093999594
0.057660457 -0.06395266 -0.034899853 -0.05732331 0.039089542 0.06810041 -0.07875756 0.0041460786
-0.061974738 -0.07453267 0.02190492 -0.12465096 -0.033834025 -0.12199583 -0.0023563649 0.03700127
-0.0028620083 -0.07694606 -0.068960495 -0.1807108 0.05092531 -0.05205772 -0.0101168165 0.013033347
-0.040301044 0.09132038 -0.17292394 -0.14260645 -0.22656918 -0.1622611 -0.11445174 -0.12616119
00000000: 3b4a 8abd 0bfb 56bd b211 44bd 4007 16be
00000010: e800 6d3d f597 b43d 56af c6bd d716 67bd
00000020: b40d b33b f7bb 253d beb8 ba3d 480f b23d
00000030: aee8 81bd 322b 8dbd 2fcb 8bbd ea30 a43d
00000040: 6730 1b3e c1b7 af3d a550 e63d 7760 10bc
00000050: 57eb 28bc f8d4 7d3d fded 85bd bea8 c73d
00000060: 0b46 c33c 253f 993e 7b55 3b3e dc92 623e
00000070: 2792 893e fb47 403e 5f92 41bc ef3e 983d
00000080: 5468 f93d dc56 1d3e 1a01 aa3c 8690 f3bd
00000090: a582 76bc adfe 53bd 9297 d4bb e926 c4bd
000000a0: 806c 08bd 917c aa3d d43d a83d d99f 533d
000000b0: 3ac2 15be 1d5c 86bd 0110 dfbd d596 dabd
000000c0: 7e70 2dbe 4915 47be 08f9 973d 619c 4a3d
000000d0: 9857 c53d 2de4 453e 7c43 383e 455e adbd
000000e0: 297b 8b3d 08ba 2abd 2aa1 8d3d f365 ba3d
000000f0: bb09 35bd a3c0 e9bd 6214 09be 6b63 c6bb
00000100: 2aa2 8cbd cd3e 01be ce12 44be a5f5 cdbd
00000110: 2410 53bd cc37 49be 443b 1bbe 1036 f0bd
00000120: 1477 f1bc fd3c d9bd 72d5 b6bd fcd9 2b3c
00000130: b058 29be 9f7a 0dbd 146b edbd a641 24be
00000140: 26ff 0f3e 1c28 2e3d 92d1 083e 8763 c03d
00000150: 9241 c03d 1bb1 6e3c d311 9ebd af94 cbbd
00000160: 2fb8 37bd 57dd 93bd c61b 1e3e 4d14 613e
00000170: c2bb 283e e148 e33d 0bb6 b33d 2e60 53bd
00000180: 4eb8 89bd d9f8 f1bd 8fe4 b7bd bcf0 bfbc
00000190: 8feb 89bd 165b 98bd 7f71 b6bd b9a2 6fbd
000001a0: 8d30 03bd 50eb 1abc 7ac8 f73c c5ad e6bd
000001b0: 1e20 8fbc a956 7c3d c123 e3bc 71bb d4bc
000001c0: 4ff4 89bd aa13 8a3d 2b0a f03c 8b5d 023d
000001d0: a04f de3d cfde 773b 5dce 4dbd f475 c73b
000001e0: 1235 963d be23 da3c f2e3 56bd 9b08 393d
000001f0: cb48 913b 9495 1c3c 06e9 703c c567 f5bd
00000200: 4d06 0bbd 0711 913d f3a5 003e c83f b4bc
00000210: 2d7b 8dbc 8e2a 973a fc35 023e 9dde 2f3d
00000220: d707 ce3d c637 f2bb a78b 42bd 63aa ed3d
00000230: 2208 e1bb 05fe 01bd 2090 133c 8324 543d
00000240: 8e31 69bd 659e e1bd 86f5 7abd 183d d13b
00000250: 4345 c1bc 9884 bc3b 635a e8bd f247 37bc
00000260: 2e29 8ebd 5128 bebc c25a 253c 952b 5cbe
00000270: f6e7 9dbd 8c3c a33b cc68 72bb 7607 fd3d
00000280: 7655 0ebe dc09 a0bd 6f8b 013b bf4c 033e
00000290: e6cf c13d 41b7 113b 806c 0dbd 41af ad3d
000002a0: 3bb6 053e eae8 003c 57ef 853d 95ea 873c
000002b0: a6da c43d 96c8 313e 7628 fa3d 15c0 7dbc
000002c0: 8749 1f3a 216f 013e cab2 0c3d c8aa 723d
000002d0: 4ffe abbc 9309 dfbd 952e c43c 3d93 4a3c
000002e0: b175 d53c 2c5b 073e ebf6 a43d 592c c63c
000002f0: 9921 65bd 24b5 623d dede 363e 4690 c63c
00000300: b076 8cbd 8b46 2e3d c465 b23d e032 0f3d
00000310: 7f99 bb3d 14d8 703d 9209 fdbc d55b f63c
00000320: aa11 6c3c 20b3 4ebd 1da1 b7bd 5bb7 59bb
00000330: be5f 1dbc 547c ac3b b5dd 0c3c e81c eebc
00000340: d164 9bbd 25c7 17bb 0f81 bbbc ba14 7f3d
00000350: 6aae 9fbd e182 26bd 76b3 5e3d 8d94 ea3c
00000360: 9f62 673c e2af 713d d58c 693d 4e9b a43c
00000370: cba8 c73d 795f 153e e880 0c3d dc82 c03d
00000380: 5f2d 6c3d 9df9 82bd 26f3 0ebd d9cb 6abd
00000390: 5b1c 203d 3a78 8b3d a54b a1bd d4db 873b
000003a0: 39d9 7dbd 96a4 98bd f271 b33c 0149 ffbd
000003b0: 8c95 0abd f3d8 f9bd 3e6d 1abb a58e 173d
000003c0: 8890 3bbb e595 9dbd 293b 8dbd 410c 39be
000003d0: 0f97 503d 7a3a 55bd 01c1 25bc d289 553c
000003e0: b512 25bd 2e06 bb3d f912 31be 6d07 12be
000003f0: c001 68be c627 26be ad65 eabd 6630 01be

conv2.bias f4 [16]
-0.44793737 0.38461146 0.44099712 0.977716 -0.5513234 -0.12698442 0.24571271 0.2691198
-0.29770273 0.1713484 -0.36656874 -0.01837682 0.23491974 -0.3423455 0.04585282 0.00228748
00000000: 0c58 e5be cbeb c43e 60ca e13e 994b 7a3f
00000010: 8823 0dbf 3408 02be 1d9c 7b3e 12ca 893e
00000020: 7e6c 98be f475 2f3e e6ae bbbe fc8a 96bc
00000030: cd8e 703e e947 afbe 2bd0 3b3d 8ce9 153b

fc1.weight f4 [120, 400]
-0.038567033 0.029557377 -0.07174037 -0.037184857 -0.037256133 -0.022342524 -0.059046112 -0.06615808
-0.023377236 -0.07901055 0.032022826 0.047876347 0.040253814 -0.010411927 0.0067140153 -0.014174085
-0.038135566 0.046732035 0.010602669 -0.010361985 0.025794555 0.010764836 0.043934185 -0.022193149
0.011802786 0.086211994 0.0368389 -0.00247876 0.005165597 0.042363334 0.03212401 0.048582315
0.016299764 -0.023176467 -0.007378425 0.06230168 -0.031239169 -0.015432572 0.02316192 -0.028840324
-0.05319213 0.0060151075 -0.046411593 -0.059757814 -0.022196187 0.004168716 0.04219943 0.007971244
-0.027114954 -0.03116889 -0.0125513235 -0.05051386 -0.027670622 -0.008700614 0.008688919 0.02642373
-0.061119657 -0.080578856 -0.03133763 -0.006009609 -0.0040234914 0.020957958 -0.020992389 0.016492257
0.021533314 0.030030672 -0.042992033 -0.008730301 0.034447294 0.059087176 0.029390976 0.040138055
0.04002058 0.004423284 0.05026833 -0.06822525 0.010393666 -0.035746336 0.013687699 0.008803612
-0.00680011 0.03202675 0.018062772 -0.04830776 0.008854459 -0.004902291 0.025836945 -0.04019264
-0.059204366 -0.06744468 -0.02856558 0.029870974 0.027958566 -0.047140256 0.0032464867 -0.060083404
0.012496705 -0.05416798 -0.07106937 -0.048705876 -0.0060990853 -0.0054663476 -0.02663093 0.013605827
-0.02115839 -0.025367279 -0.052631803 -0.044190638 -0.07084695 -0.02670888 -0.006859951 0.046886515
-0.015997563 0.016421784 -0.05534384 0.0074835797 0.03156304 -0.028449634 -0.025511492 0.044832952
0.04101492 -0.020970453 -0.052095126 0.036858443 0.008553959 -0.01316847 -0.009279897 -0.04467772
-0.030521085 -0.09670233 0.012359802 0.0035484238 -0.034896985 0.037519857 -0.095417306 -0.039407
0.009789818 -0.02918416 -0.0027287914 -0.05880815 -0.011485295 -0.005567986 -0.028216118 -0.026696898
0.01696631 -0.040799636 -0.026058964 -0.040908486 -0.05483582 0.004254918 -0.0021338486 -0.026220633
-0.029629985 0.02078356 -0.050763484 0.0019363626 0.047967367 0.0083623575 -0.011209051 -0.026802802
0.058358945 0.030951228 -0.041369516 -0.024642542 -0.06951297 0.051807035 -0.015679974 0.024199136
0.018506298 0.020902814 -0.008786779 0.016324796 0.004906623 -0.031648953 0.051503725 0.049678937
-0.021788284 0.025524458 0.0105984835 -0.005106993 -0.022806304 -0.022634313 0.050058488 0.0082686925
0.03756432 -0.024185367 0.0027946073 -0.02464708 -0.032914594 -0.01560918 0.013598148 -0.026923394
-0.02147154 -0.031532776 -0.0080312565 -0.009387252 -0.0063742413 -0.044270135 -0.034313887 0.021764385
-0.06386654 0.028473485 0.024068572 -0.06725349 -0.016402217 -0.033527356 -0.018072406 -0.013661774
-0.055498473 -0.070840776 -0.0034153732 -0.026554627 -0.05872332 -0.04914497 -0.003077978 0.004836559
-0.044010628 -0.08299257 -0.019915137 -0.02580104 -0.01858451 -0.012650392 -0.06368257 0.033168778
0.021799928 0.014101269 -0.07122159 -0.023326641 0.0014729106 -0.0014214286 -0.010285928 0.03668991
-0.029925711 0.00832133 -0.007888776 -0.0278597 0.027733767 -0.017516717 0.023566417 0.0061401776
0.013476765 0.030733094 0.011616975 0.053567614 0.06614915 -0.0258367 0.025259767 0.0063357293
-0.016815688 0.025128646 -0.03940644 -0.022277039 0.023151962 0.03037893 -0.025150718 -0.060276773
00000000: 77f8 1dbd 5022 f23c 9dec 92bd 264f 18bd
00000010: e399 18bd ab07 b7bc 56da 71bd e37d 87bd
00000020: 9e81 bfbc 49d0 a1bd 5e2a 033d fd19 443d
00000030: 2fe1 243d c996 2abc 3e01 dc3b 6c3a 68bc
00000040: 0a34 1cbd 176a 3f3d d1b6 2d3c 51c5 29bc
00000050: 1a4f d33c ff5e 303c 55f4 333d 68ce b5bc
00000060: 7960 413c ea8f b03d 63e4 163d b172 22bb
00000070: 2b44 a93b 2d85 2d3d 7794 033d 40fe 463d
00000080: 1587 853c 93dc bdbc b7c6 f1bb 0c30 7f3d
00000090: 49e9 ffbc e6d8 7cbc 11be bd3c 8b42 ecbc
000000a0: fedf 59bd 611a c53b 151a 3ebd 9cc4 74bd
000000b0: c7d4 b5bc b999 883b 4fd9 2c3d d299 023c
000000c0: 2e20 debc e655 ffbc 11a4 4dbc 9fe7 4ebd
000000d0: 80ad e2bc 058d 0ebc f85b 0e3c 9476 d83c
000000e0: 9b58 7abd 8706 a5bd e35b 00bd 41ec c4bb
000000f0: 7ed7 83bb 06b0 ab3c 3bf8 abbc c51a 873c
00000100: a266 b03c e202 f63c 6a18 30bd 8909 0fbc
00000110: 9b18 0d3d 6505 723d 58c5 f03c cd67 243d
00000120: 9fec 233d 32f1 903b 2ae6 4d3d aeb9 8bbd
00000130: 324a 2a3c c06a 12bd 5f42 603c 063d 103c
00000140: 75d3 debb 7b2e 033d 61f8 933c 5cde 45bd
00000150: 4b12 113c 66a3 a0bb 00a8 d33c 0aa1 24bd
00000160: 4780 72bd 7020 8abd 5d02 eabc f9b3 f43c
00000170: 5d09 e53c 2416 41bd 02c3 543b 041a 76bd
00000180: fbbe 4c3c 3edf 5dbd d18c 91bd d07f 47bd
00000190: d6da c7bb 0c1f b3bb 1c29 dabc faea 5e3c
000001a0: 5c54 adbc 0acf cfbc 7294 57bd 3e01 35bd
000001b0: 3518 91bd 95cc dabc 71c9 e0bb 130c 403d
000001c0: 520d 83bc fa86 863c 39b0 62bd d138 f53b
000001d0: 3f48 013d 350f e9bc 7afd d0bc c2a2 373d
000001e0: 43ff 273d 3aca abbc b361 55bd e1f8 163d
000001f0: e825 0c3c 91c0 57bc b60a 18bc fcff 36bd
00000200: 5b07 fabc df0b c6bd c480 4a3c ac8c 683b
00000210: 24f0 0ebd 6cae 193d 266a c3bd 3c69 21bd
00000220: 7965 203c 9f13 efbc 86d5 32bb d1e0 70bd
00000230: d22c 3cbc a773 b6bb 7d25 e7bc 74b3 dabc
00000240: eefc 8a3c 851d 27bd 9c79 d5bc a88f 27bd
00000250: 869b 60bd d76c 8b3b 0ad8 0bbb a7cc d6bc
00000260: 95ba f2bc 4942 aa3c 5fed 4fbd 8ccd fd3a
00000270: 6e79 443d 4502 093c 2ba6 37bc 8d91 dbbc
00000280: ca09 6f3d 6e8d fd3c 1573 29bd 28df c9bc
00000290: d15c 8ebd 9d33 543d 4a73 80bc 443d c63c
000002a0: 859a 973c 613c ab3c 6cf6 0fbc 94bb 853c
000002b0: bdc7 a03b 55a2 01bd 92f5 523d 247c 4b3d
000002c0: 587d b2bc ab18 d13c 43a5 2d3c 9058 a7bb
000002d0: 49d4 babc 986b b9bc 210a 4d3d 6979 073c
000002e0: 0bdd 193d 6420 c6bc bb25 373b ace8 c9bc
000002f0: 74d1 06bd a5bd 7fbc c4ca 5e3c 738e dcbc
00000300: 15e5 afbc 8328 01bd 8895 03bc fdcc 19bc
00000310: 03df d0bb 9a54 35bd b88c 0cbd 394b b23c
00000320: 76cc 82bd 3a41 e93c 742b c53c 33bc 89bd
00000330: f15d 86bc fb53 09bd 950c 94bc a2d5 5fbc
00000340: 5e52 63bd f814 91bd 74d4 5fbb 1789 d9bc
00000350: dd87 70bd 3c4c 49bd e7b7 49bb ff7b 9e3b
00000360: 7d44 34bd 02f8 a9bd 1225 a3bc b45c d3bc
00000370: 8b3e 98bc 9743 4fbc 026c 82bd fcdb 073d
00000380: c395 b23c 0209 673c a0dc 91bd 8317 bfbc
00000390: ae0e c13a 3b4f baba 4f86 28bc 2948 163d
000003a0: c426 f5bc 3056 083c ed3f 01bc 073a e4bc
000003b0: ed31 e33c 387f 8fbc 5c0e c13c 8b33 c93b
000003c0: a6cd 5c3c f8c3 fb3c 2055 3e3c b769 5b3d
000003d0: 3579 873d 7da7 d3bc 92ed ce3c f39b cf3b
000003e0: 0ec1 89bc 97da cd3c a668 21bd 567e b6bc
000003f0: 2fa9 bd3c 3cdd f83c e108 cebc c7e4 76bd

fc1.bias f4 [120]
0.041404355 0.16617426 -0.050385732 0.034624837 0.032849148 0.069413394 -0.032961242 0.034166098
0.07207982 0.03852931 -0.04072292 0.15933514 0.07810576 -0.011134367 0.0775428 0.10793063
-0.06767556 0.030089565 -0.034251288 -0.024001887 0.016402725 0.04657567 0.09445663 -0.16151008
0.20110959 0.09134912 -0.024469387 0.021896817 -0.035353385 0.03867924 0.073237844 0.019025931
0.078032464 0.022306055 0.03283265 0.08007161 -0.07330215 0.09247084 -0.04753042 0.030797552
-0.006225937 0.03498097 0.12956226 -0.11421683 0.0105612995 0.0019199775 0.15645286 -0.04459056
0.14906617 0.026257116 -0.038503952 -0.044632122 0.031182772 0.07955164 0.038719546 -0.005708545
-0.02481752 0.017055962 0.0015444125 0.097510986 0.0007990201 0.011865978 0.11593194 -0.005322546
-0.019715795 0.15006919 -0.045588978 -0.0547105 0.045946628 -0.006665898 -0.044876717 -0.042546082
0.021909863 -0.038978722 -0.0027456887 -0.00573449 0.033262685 -0.04969811 -0.020116799 0.0847335
-0.025187248 -0.09151012 0.023111459 0.09174006 0.02687416 -0.012268077 0.051634666 0.04996396
0.044590525 0.0079460265 0.0006066976 -0.046718705 -0.00706278 0.082319945 -0.07478012 0.01612749
0.040681932 -0.035242267 -0.053723514 -0.09480157 -0.0827698 -0.14647755 0.096081525 0.09766364
0.06025558 -0.12919934 0.10816385 0.026703632 0.0062255156 -0.058911968 0.0035844427 -0.11575507
-0.15228777 0.034101132 0.068837345 -0.038366858 -0.040350623 -0.029713698 0.1092837 0.0074234963
00000000: 9d97 293d 9629 2a3e 4561 4ebd c6d2 0d3d
00000010: d48c 063d 9c28 8e3d 5e02 07bd c0f1 0b3d
00000020: 969e 933d e9d0 1d3d 14cd 26bd c028 233e
00000030: eaf5 9f3d ec6c 36bc c2ce 9e3d bc0a dd3d
00000040: 7c99 8abd 647e f63c 144b 0cbd 9b9f c4bc
00000050: 025f 863c 21c6 3e3d 7a72 c13d e662 25be
00000060: acef 4d3e 3f15 bb3d 0674 c8bc f460 b33c
00000070: b6ce 10bd 1f6e 1e3d b9fd 953d 45dc 9b3c
00000080: 7ccf 9f3d 30bb b63c 877b 063d 96fc a33d
00000090: 701f 96bd 5a61 bd3d 42af 42bd 264b fc3c
000000a0: f202 ccbb 3548 0f3d f8ab 043e 83ea e9bd
000000b0: 4d09 2d3c c1a7 fb3a 2e35 203e 97a4 36bd
000000c0: cda4 183e 2a19 d73c 52b6 1dbd 2cd0 36bd
000000d0: 0373 ff3c f8eb a23d 6398 1e3d bf0e bbbb
000000e0: 1d4e cbbc f2b8 8b3c e26d ca3a d7b3 c73d
000000f0: 5575 513a 8569 423c ba6d ed3d c168 aebb
00000100: 0583 a1bc bdab 193e 82bb 3abd 1e18 60bd
00000110: 8832 3c3d 9b6d dabb a6d0 37bd cd44 2ebd
00000120: 507c b33c 27a8 1fbd 03f1 33bb 64e8 bbbb
00000130: 743e 083d 3f90 4bbd fccb a4bc c288 ad3d
00000140: 7d55 cebc a869 bbbd 3e54 bd3c 36e2 bb3d
00000150: 3327 dc3c 0b00 49bc df7e 533d 02a7 4c3d
00000160: 8ea4 363d 0d30 023c c90a 1f3a 1d5c 3fbd
00000170: e56e e7bb 5c97 a83d 5226 99bd cc1d 843c
00000180: 19a2 263d 325a 10bd 300d 5cbd 5327 c2bd
00000190: 3783 a9bd 36fe 15be 64c6 c43d e003 c83d
000001a0: 8ece 763d d54c 04be 0285 dd3d 93c1 da3c
000001b0: 69ff cb3b ad4d 71bd f8e8 6a3b fe10 edbd
000001c0: 53f1 1bbe a1ad 0b3d 98fa 8c3d 9126 1dbd
000001d0: b246 25bd 246a f3bc 22d0 df3d cd40 f33b

fc2.weight f4 [84, 120]
-0.03662068 -0.050466806 0.019730832 -0.04516938 0.057178874 0.047462527 -0.047997355 -0.092122115
-0.09129858 -0.0863518 0.019260762 0.11683789 -0.10616121 -0.09395795 0.040073987 0.08896724
-0.07986743 0.08971794 0.0031437587 0.06413756 -0.10555163 0.065045804 -0.032460574 0.038159594
0.11598206 -0.015364411 0.0576511 0.01955226 -0.03373988 -0.1615141 -0.062493805 0.068046674
0.06872802 0.056905344 0.042807907 -0.02297881 0.10590774 -0.04741689 0.06369033 -0.021311931
-0.032782592 -0.034193244 0.06952272 0.0061955266 -0.00943095 -0.0012255285 -0.06791627 -0.032590408
0.038019337 0.040257115 0.010288656 -0.0155916605 0.070884496 -0.018793115 -0.09044519 -0.097238086
0.062147163 0.03493898 -0.012870346 0.10726738 0.0701755 0.011160567 0.012527003 -0.036567062
-0.0927462 0.022017539 -0.025688156 0.10179163 -0.08595072 -0.06604152 0.08541777 0.06400096
-0.004553869 -0.08504402 0.011471747 0.06433537 -0.0036662898 0.07083713 0.0114028435 0.07189431
-0.10153776 0.045292255 0.13208647 -0.04483653 -0.06445809 -0.08077645 0.06291886 0.1272579
0.05972382 0.05229686 0.0006721909 -0.039511353 -0.022148078 0.08374638 0.02724493 -0.06047541
-0.052518584 -0.089630395 -0.06519914 0.006143374 -0.031794365 -0.100411884 -0.017761327 0.035879727
0.036570236 0.05000028 0.18044174 -0.06309741 0.08667708 -0.095266715 0.064279035 -0.008177689
-0.033700004 0.030431572 -0.032450985 -0.0031673291 0.07637303 -0.004252488 0.10596171 -0.06794201
-0.047867086 0.10381826 -0.050051086 -0.0078082685 -0.007234138 0.0354107 0.0887025 0.071649976
-0.026754072 0.047422137 -0.08387391 0.040009115 0.014300948 -0.027789997 -0.00029887143 0.037965104
-0.08532159 -0.008667331 -0.03400879 0.008326408 0.012811161 0.08960027 -0.0009883023 -0.10118874
0.102915555 -0.06680897 -0.042139158 -0.029928645 0.08241328 0.11046109 0.036635906 -0.064163916
-0.0015714373 0.042477675 -0.03445528 -0.04785688 -0.09358008 0.036866814 -0.02315912 -0.06705952
-0.07272055 0.011314458 0.06362316 -0.054831576 -0.035329077 0.057853423 0.069174975 -0.0051971157
0.11334329 -0.08408432 -0.06113681 0.018142361 -0.06978546 -0.048297446 0.0800074 -0.091647714
0.018553564 0.052863013 0.06638807 -0.040300675 -0.06988924 -0.055468943 -0.02321419 0.051586375
0.019417142 -0.014866116 0.027512554 -0.009194112 0.039357472 -0.072039224 -0.09116946 -0.07600227
-0.06064385 0.09423689 0.07652981 0.012711969 -0.065207735 -0.054649785 0.01747616 -0.042974234
-0.074435316 -0.02745933 -0.076004475 0.042052023 0.070585735 -0.021462278 0.04462619 0.037483416
-0.046990618 0.076131076 -0.07598031 -0.013268438 -0.060722217 -0.018986212 0.07156726 -0.03464735
0.031214518 -0.05078607 -0.009967469 0.06473611 -0.05436817 -0.041563224 -0.020799251 0.042592827
-0.059747756 0.043851063 -0.01595602 -0.08609261 -0.092519544 0.023331715 0.054664556 -0.06537317
-0.13159937 -0.07263323 -0.05948969 -0.056684498 -0.049504574 0.022684706 0.1068885 -0.052446205
-0.052563943 -0.031442184 0.09944609 0.021056373 0.00822826 -0.029750716 -0.012958702 0.0109046
0.017635627 -0.0885756 0.09004015 0.08230545 0.00820595 -0.060735624 -0.07814015 0.005228086
00000000: 91ff 15bd 48b6 4ebd 8ea2 a13c 8703 39bd
00000010: 6534 6a3d 1168 423d e098 44bd 85aa bcbd
00000020: c0fa babd 36d9 b0bd bfc8 9d3c b448 ef3d
00000030: 0c6b d9bd 076d c0bd 9f24 243d 7534 b63d
00000040: 8991 a3bd 0abe b73d 8507 4e3b 8e5a 833d
00000050: 742b d8bd bc36 853d 61f5 04bd 3c4d 1c3d
00000060: 0188 ed3d 03bb 7bbc 8f23 6c3d 102c a03c
00000070: d432 0abd f463 25be 81f9 7fbd 0e5c 8b3d
00000080: 47c1 8c3d 9415 693d 5857 2f3d 0f3e bcbc
00000090: 28e6 d83d 3638 42bd 1370 823d 5c96 aebc
000000a0: 0a47 06bd 370e 0cbd ee61 8e3d d803 cb3b
000000b0: 4584 1abc eaa1 a0ba af17 8bbd 857d 05bd
000000c0: 2aba 1b3d a5e4 243d c091 283c 2a74 7fbc
000000d0: e42b 913d 05f4 99bc 543b b9bd c324 c7bd
000000e0: 068e 7e3d 2d1c 0f3d 25de 52bc 00af db3d
000000f0: 2cb8 8f3d d0da 363c 0f3e 4d3c 58c7 15bd
00000100: b8f1 bdbd 205e b43c f86f d2bc 2178 d03d
00000110: ee06 b0bd c740 87bd 83ef ae3d ef12 833d
00000120: 9f38 95bb 8f2b aebd fff3 3b3c 43c2 833d
00000130: 2346 70bb 0f13 913d fed2 3a3c 533d 933d
00000140: 07f3 cfbd 5f84 393d ad41 073e 82a6 37bd
00000150: 9a02 84bd 206e a5bd 9adb 803d e54f 023e
00000160: f7a0 743d 3b35 563d f835 303a a8d6 21bd
00000170: e36f b5bc 3983 ab3d c230 df3c 10b5 77bd
00000180: ba1d 57bd 2490 b7bd 2087 85bd 5b4e c93b
00000190: cf3a 02bd bfa4 cdbd 3480 91bc 9ff6 123d
000001a0: acca 153d 18cd 4c3d b8c5 383e 3739 81bd
000001b0: c183 b13d 321b c3bd baa4 833d b7fb 05bc
000001c0: 0409 0abd a24b f93c 53eb 04bd f792 4fbb
000001d0: 7769 9c3d 7458 8bbb 7402 d93d 2e25 8bbd
000001e0: 4710 44bd ab9e d43d 5e02 4dbd 81dc ffbb
000001f0: 590c edbb cf0a 113d a8a9 b53d 39bd 923d
00000200: 5b2b dbbc b73d 423d 16c6 abbd 99e0 233d
00000210: 864e 6a3c d9a7 e3bc d8b1 9cb9 4c81 1b3d
00000220: 16bd aebd 6c01 0ebc cd4c 0bbd 7d6b 083c
00000230: e7e5 513c 5980 b73d ec89 81ba 0b3c cfbd
00000240: 64c5 d23d 24d3 88bd 1c9a 2cbd eb2c f5bc
00000250: 4bc8 a83d 6d39 e23d 880f 163d 5f68 83bd
00000260: b0f8 cdba 12fd 2d3d fb20 0dbd 9305 44bd
00000270: eaa6 bfbd a801 173d 32b8 bdbc 8056 89bd
00000280: 83ee 94bd 4760 393c dc4c 823d 1397 60bd
00000290: 39b5 10bd b6f7 6c3d 9cab 8d3d 914c aabb
000002a0: 8720 e83d 6634 acbd 976a 7abd 4a9f 943c
000002b0: aeeb 8ebd 8bd3 45bd ebda a33d ccb1 bbbd
000002c0: a5fd 973c e386 583d 78f6 873d 5212 25bd
000002d0: 1722 8fbd 6733 63bd af2b bebc 3c4c 533d
000002e0: b310 9f3c 0391 73bc 0262 e13c e7a2 16bc
000002f0: 4d35 213d 4d89 93bd 0eb7 babd 14a7 9bbd
00000300: b065 78bd 45ff c03d a9bb 9c3d dd45 503c
00000310: a28b 85bd 74d8 5fbd 2a2a 8f3c c005 30bd
00000320: 8b71 98bd 64f2 e0bc 3ca8 9bbd be3e 2c3d
00000330: 418f 903d a9d1 afbc f4c9 363d 3688 193d
00000340: 3c79 40bd 9cea 9b3d 919b 9bbd dd63 59bc
00000350: dcb7 78bd f988 9bbc db91 923d 61ea 0dbd
00000360: 97b5 ff3c 0e05 50bd 984e 23bc 5e94 843d
00000370: 29b1 5ebd 333e 2abd 3163 aabc d175 2e3d
00000380: 10ba 74bd 2c9d 333d 33b6 82bc 5351 b0bd
00000390: e37a bdbd 2722 bf3c f1e7 5f3d 5ee2 85bd
000003a0: fcc1 06be bbc0 94bd 76ab 73bd 012e 68bd
000003b0: 4fc5 4abd 47d5 b93c 5ce8 da3d d5d1 56bd
000003c0: 4a4d 57bd 85c9 00bd 64aa cb3d 6a7e ac3c
000003d0: d3cf 063c c6b7 f3bc bc50 54bc 35a9 323c
000003e0: 9778 903c 2067 b5bd f866 b83d c38f a83d
000003f0: 4072 063c ebc5 78bd f107 a0bd 5d50 ab3b

fc2.bias f4 [84]
0.08227804 -0.00043245938 -0.00018505218 -0.046150163 0.07656239 -0.07954599 -0.08248628 -0.077414505
0.112971954 -0.17237158 0.031553328 -0.07735379 -0.017014107 -0.11629782 -0.086467884 -0.0863816
0.018464932 0.2871728 -0.035329256 0.13038447 -0.10947952 9.36545e-05 0.3612831 0.3190318
0.0596862 0.12012021 -0.0069818213 0.17284183 -0.0082818195 0.110647 0.051983286 0.12721863
0.15446998 -0.093189806 0.20184322 0.030968664 0.074834995 0.124562465 0.044621665 -0.053401873
-0.04881031 0.19573346 -0.04957315 -0.06159942 0.16534425 -0.08986923 -0.0728489 0.3991501
-0.13162875 0.10983934 0.060940746 0.07625043 -0.061931767 0.27026072 -0.10167202 0.099213324
0.07930424 0.038587954 0.0042266306 -0.030140745 -0.0633324 0.03516644 0.021072423 0.122071214
0.10023009 0.22087306 -0.05065216 0.16347209 -0.019225568 0.13955708 0.21345775 0.20236157
0.07115838 -0.053677365 -0.08289974 -0.08848523 0.090187676 0.0063182903 -0.007888462 -0.06060557
-0.0029390668 -0.027580908 0.0135800615 0.01595776
00000000: 6481 a83d b7bb e2b9 910a 42b9 f407 3dbd
00000010: becc 9c3d 02e9 a2bd 91ee a8bd 7f8b 9ebd
00000020: d75d e73d 2d82 30be 103e 013d aa6b 9ebd
00000030: 2b61 8bbc 8d2d eebd 1316 b1bd d6e8 b0bd
00000040: c543 973c 5008 933e 69b5 10bd 8283 053e
00000050: cc36 e0bd 6068 c438 19fa b83e 2358 a33e
00000060: 8479 743d 9601 f63d c3c7 e4bb 73fd 303e
00000070: 78b0 07bc e59a e23d 6dec 543d 9a45 023e
00000080: 612d 1e3e 4cda bebd fdaf 4e3e ffb1 fd3c
00000090: 1743 993d 9b1a ff3d 35c5 363d ecbb 5abd
000000a0: 52ed 47bd 5a6e 483e 370d 4bbd ac4f 7cbd
000000b0: 0150 293e 5c0d b8bd ce31 95bd 675d cc3e
000000c0: b0c9 06be 73f3 e03d 019d 793d 2f29 9c3d
000000d0: 2aac 7dbd 9d5f 8a3e 6c39 d0bd 5b30 cb3d
000000e0: 436a a23d 670e 1e3d 8c7f 8a3b b9e9 f6bc
000000f0: 6bb4 81bd af0a 103d 13a0 ac3c 7900 fa3d
00000100: 6f45 cd3d 8c2c 623e a478 4fbd 3a65 273e
00000110: f07e 9dbc 0de8 0e3e ab94 5a3e df37 4f3e
00000120: 7cbb 913d ccdc 5bbd 57c7 a9bd bf37 b5bd
00000130: 51b4 b83d a909 cf3b 9c3e 01bc 8c3d 78bd
00000140: 5c9d 40bb 5bf1 e1bc e87e 5e3c d9b9 823c

fc3.weight f4 [10, 84]
0.016582554 0.04064549 0.03352274 -0.008214534 0.053077612 -0.045483366 -0.09704695 0.020407418
0.073345326 -0.15161341 -0.1462523 -0.17625082 0.26546434 0.31643298 -0.13102643 0.07184531
-0.06889391 0.26141217 0.04013841 0.05521153 0.03307772 -0.057541717 0.03445416 -0.1347324
-0.04671534 0.13861524 -0.017612526 0.12587103 -0.0102504585 -0.2662021 0.17923245 0.0045507397
-0.10689582 0.023566807 0.006123131 0.16755702 0.0045536244 0.1420112 0.09454691 0.10689155
-0.03322047 0.17213048 -0.10160667 0.077832185 -0.037537564 0.024524275 -0.011700842 -0.2732198
0.036568966 -0.018461183 0.089213766 -0.16727303 -0.017119935 -0.22780903 -0.14569408 -0.18991241
-0.07995828 0.16450743 -0.18865998 -0.012597091 0.043472677 0.02256825 0.018539317 0.039123923
0.052085467 -0.053646013 0.038993824 -0.15082322 -0.10016597 0.19138148 0.1963446 -0.13681512
0.15381046 0.2511851 -0.018469388 0.069893524 -0.14600593 -0.11193078 0.048742175 0.020114427
0.28070903 0.042558208 -0.123379916 0.06360086 -0.10970027 0.0049863225 0.011059028 0.0032527656
-0.023746977 -0.10048008 -0.08045074 -0.090862714 -0.1328995 0.123803526 -0.1597961 0.21377574
0.0005886482 0.060580052 -0.11280658 -0.011821822 0.053890422 0.015455093 -0.013127145 -0.21687673
0.10055981 0.027374612 -0.13630524 0.026733052 -0.029704638 -0.21978053 -0.069862604 -0.016881237
-0.015577765 0.051435895 -0.08803195 0.1402898 -0.011519966 0.0061517525 -0.19795917 -0.1967377
0.0133354375 -0.3791602 0.23180062 0.2658866 -0.09442451 -0.18077874 0.14092752 -0.093582876
-0.07413733 0.18938819 0.2369593 -0.22748975 0.1397112 0.0791863 0.023516884 -0.07801938
0.034687158 -0.32902795 0.16635707 0.006890049 0.014166264 -0.029548017 -0.024221962 -0.19733599
-0.050871093 -0.011729416 0.17999841 0.095693484 0.13716915 -0.124610305 0.2280853 -0.09131001
0.031873196 -0.11449844 0.098941594 -0.0992582 0.04459461 -0.09455539 0.0613136 0.08007601
-0.007759758 0.060793325 0.20750444 0.15709391 0.15230012 -0.13692994 -0.21467964 0.40948793
0.10135409 0.07380751 0.04700885 0.009433023 0.038406704 -0.0758492 0.123212375 0.08593916
-0.009155486 0.017038137 0.06931422 0.19722138 -0.1214589 0.052977137 0.017092211 0.14025734
0.13711368 0.25077796 0.10084587 0.18901704 0.15676676 -0.1071014 0.21339892 0.16502075
-0.13173917 0.1847761 0.08237857 -0.12804025 -0.023014473 -0.11211556 -0.13012043 -0.12413276
0.10156601 -0.0281714 -0.06975411 -0.07451577 0.1616768 0.18267126 -0.11088323 0.07214087
0.16018374 -0.042193484 0.1004569 0.049277794 0.14585909 0.00078339566 -0.06730744 0.27164757
-0.1481287 0.06651159 0.13214616 0.08377404 0.042454213 0.06607029 0.026200298 -0.06404941
0.041595664 0.0032315406 -0.12173486 0.0349135 -0.098859325 0.010807248 0.118211985 0.018632678
-0.33557782 0.3004268 -0.07594607 -0.09795147 0.0952616 0.2630623 -0.06819051 0.2539111
-0.052396208 0.038870946 0.06197294 -0.098996386 0.020925697 -0.08185434 -0.22759582 -0.22177733
-0.0995601 0.12401514 0.07990591 -0.07931446 0.22525986 -0.09235188 -0.03396252 -0.07489049
00000000: 23d8 873c e37b 263d 244f 093d 4196 06bc
00000010: e967 593d c44c 3abd 8dc0 c6bd 752d a73c
00000020: 1336 963d 8c40 1bbe 2ac3 15be 187b 34be
00000030: f1ea 873e 8103 a23e cb2b 06be a223 933d
00000040: 4018 8dbd d1d7 853e 2c68 243d 7c25 623d
00000050: 817c 073d ddb0 6bbd ce1f 0d3d 4af7 09be
00000060: 9658 3fbd 27f1 0d3e 2548 90bc 56e4 003e
00000070: 8af1 27bc a44b 88be b688 373e 5f1e 953b
00000080: 32ec dabd 2d0f c13c 8ca4 c83b 1194 2b3e
00000090: 9236 953b 626b 113e cfa1 c13d f5e9 da3d
000000a0: 3012 08bd f942 303e 2817 d0bd 7b66 9f3d
000000b0: fdc0 19bd 22e7 c83c e3b4 3fbc 77e3 8bbe
000000c0: 57c9 153d e83b 97bc b5b5 b63d 9f49 2bbe
000000d0: 1b3f 8cbc c546 69be d430 15be 6678 42be
000000e0: 2bc1 a3bd a374 283e 1530 41be 0764 4ebc
000000f0: 6810 323d 0de1 b83c c4df 973c 6840 203d
00000100: 9257 553d ecbb 5bbd fdb7 1f3d 6771 1abe
00000110: d123 cdbd 82f9 433e 8f0e 493e 4319 0cbe
00000120: 7d80 1d3e 559b 803e 1d4d 97bc 5624 8f3d
00000130: 9482 15be f73b e5bd e0a5 473d 03c7 a43c
00000140: 18b9 8f3e 8451 2e3d 9cae fcbd 2b41 823d
00000150: 89aa e0bd 4e64 a33b ed30 353c 5a2c 553b
00000160: 0589 c2bc 80c8 cdbd 5cc3 a4bd 3b16 babd
00000170: ce16 08be b48c fd3d 97a1 23be 07e8 5a3e
00000180: 834f 1a3a ca22 783d 2307 e7bd 51b0 41bc
00000190: 34bc 5c3d 5c37 7d3c 3d13 57bc ef14 5ebe
000001a0: 4df2 cd3d b940 e03c 9a93 0bbe 46ff da3c
000001b0: 2457 f3bc 260e 61be 2014 8fbd 854a 8abc
000001c0: e239 7fbc 72ae 523d 184a b4bd 21a8 0f3e
000001d0: 3dbe 3cbc a494 c93b cfb5 4abe 9c75 49be
000001e0: e17c 5a3c 4921 c2be 245d 6d3e 4a22 883e
000001f0: a361 c1bd 101e 39be 4e4f 103e 61a8 bfbd
00000200: 50d5 97bd faee 413e 75a5 723e 13f3 68be
00000210: 7410 0f3e 6d2c a23d 7ba6 c03c a0c8 9fbd
00000220: 1f14 0e3d 5a76 a8be 8259 2a3e ecc5 e13b
00000230: 9e19 683c af0e f2bc 236d c6bc 7212 4abe
00000240: 355e 50bd bd2c 40bc 8151 383e f2fa c33d
00000250: 1276 0c3e b033 ffbd 318f 693e be00 bbbd
00000260: 788d 023d 287e eabd e4a1 ca3d e247 cbbd
00000270: d6a8 363d 42a6 c1bd f823 7b3d e4fe a33d
00000280: 9145 febb 6c02 793d 0b7c 543e 3add 203e
00000290: 90f4 1b3e 5d37 0cbe fbd4 5bbe 67a8 d13e
000002a0: bc92 cf3d 6428 973d 5a8c 403d f78c 1a3c
000002b0: 5950 1d3d d356 9bbd c556 fc3d df00 b03d
000002c0: e400 16bc 9093 8b3c 9df4 8d3d 67f4 493e
000002d0: 72bf f8bd 8efe 583d f704 8c3c 9f9f 0f3e
000002e0: 8767 0c3e f865 803e 4888 ce3d af8d 413e
000002f0: 7787 203e fb57 dbbd 3f85 5a3e 33fb 283e
00000300: a2e6 06be f235 3d3e 19b6 a83d fc1c 03be
00000310: d988 bcbc d89c e5bd 4a3e 05be 5139 febd
00000320: d701 d03d b5c7 e6bc 3edb 8ebd b99b 98bd
00000330: 9a8e 253e 2d0e 3b3e bf16 e3bd 98be 933d
00000340: 3507 243e 13d3 2cbd 59bc cd3d 83d7 493d
00000350: 165c 153e cb5c 4d3a 7cd8 89bd 6415 8b3e
00000360: 0daf 17be 3a37 883d 5351 073e b991 ab3d
00000370: 78e4 2d3d dc4f 873d 02a2 d63c 562c 83bd
00000380: 3760 2a3d 41c8 533b 2050 f9bd 7501 0f3d
00000390: c276 cabd e210 313c 2019 f23d 8fa3 983c
000003a0: dbd0 abbe 8bd1 993e 9d89 9bbd c89a c8bd
000003b0: 8418 c33d 1ab0 863e 77a7 8bbd a300 823e
000003c0: 689d 56bd 2437 1f3d 56d7 7d3d 9ebe cabd
000003d0: 5e6c ab3c 40a3 a7bd e10e 69be 9919 63be
000003e0: 2ae6 cbbd a6fb fd3d b6a5 a33d 9f6f a2bd
000003f0: 85aa 663e fc22 bdbd 491c 0bbd 2f60 99bd

fc3.bias f4 [10]
-0.17312372 -0.6710433 0.08423412 0.2998595 0.52717745 -0.12793395 0.17215197 -0.23857968
0.33620358 -0.34182954
00000000: 5847 31be 7ec9 2bbf f082 ac3d 2f87 993e
00000010: 1af5 063f 1e01 03be 9b48 303e 3b4e 74be
00000020: e022 ac3e 4804 afbe
